tflite_models/tensorflow_nn_model.tflite (tflite, 22616 bytes, 7 tensors)

sequential/dense_3/MatMul f4 [1, 50]
00000000: 433b 153d 17f2 aebe 798e f4bc 69bd 18be
00000010: 682d a43e ded9 e03d 7eaf 2f3d 2d21 483e
00000020: 62e7 8ebe fbde 93be 4aa9 ff3d e367 d43c
00000030: bd7a 97be 825d b03c da43 933e 1741 313e
00000040: abe3 ffbd e1da 69bd af1b e1bc 9ab6 373e
00000050: fcaa 243e 18ba 2ebe 498c 973e d8ac 41be
00000060: 4d40 94be 795c 2fbe 87fe c63d 3e2f 4fbe
00000070: e03c a8bd 06b9 0f3e bb64 423e 5c39 b7bd
00000080: f00b 18be cf0b 0f3d 89d8 cbbd 87aa 75be
00000090: 0881 e93d 21dc 9e3e f35e 563e 4050 31be
000000a0: 6676 493e 0247 293e cddb 043d 2bfa a93d
000000b0: f5d7 4e3d 48ac 063e f1fb 893e 9c5a 493e
000000c0: 12d7 89bd c301 5bbe
0.03643347 -0.34169075 -0.029853093 -0.14916004 0.32065892 0.10979055 0.04289197 0.19543906
-0.27910906 -0.28881058 0.12483461 0.025928443 -0.2958583 0.021528963 0.28762704 0.17309986
-0.12494596 -0.057093505 -0.02747902 0.1794075 0.1608085 -0.17063177 0.29599217 -0.18913591
-0.28955308 -0.1712512 0.09716516 -0.20232865 -0.08214736 0.14035425 0.18983738 -0.08946487
-0.14848304 0.03492337 -0.0995341 -0.23990832 0.11401564 0.3102732 0.20934658 -0.17315769
0.19674072 0.16530994 0.03243618 0.08299669 0.05049892 0.13151658 0.2695003 0.19663471
-0.067304745 -0.21387391

sequential/dense_1/BiasAdd/ReadVariableOp f4 [100]
00000000: 575d 133d 632d a5bc f151 82bc 06d0 dcbd
00000010: 4559 7e3c c596 203b 21c6 bdbd 0ede 7bbd
00000020: 9243 29bc a10d b83a 5836 633c 08fb 2cbd
00000030: 4cd0 debd 9e1a f53c 96a9 d23b 1a47 f0bb
00000040: a635 40b9 9be2 703c 4de3 80bd e91a aaba
00000050: 7e1b 0cbd 34fc 87bd 2eaa 5dba 139e b73d
00000060: 21c8 98bd 394f 25bc f904 a93a a257 91be
00000070: 1fd3 9cbd 9567 083d 6f7e 213d 8c83 ea3b
00000080: 1a83 6c3c 99b2 45bd f900 b73d 4003 7abd
00000090: cbc5 833b 9794 6bbc d36e c43c e17c 603c
000000a0: b2d5 12bd 91e3 903c 75b7 343c f489 6bbd
000000b0: 01a3 1a3b eaf4 953a 0e68 0b3c d6e5 19bd
000000c0: ce2e 3ebc 6f22 f83b f82a 01be f445 ba3b
000000d0: f65b 2d3c 71c0 283d 51d0 0f3c f222 39bc
000000e0: e2a7 3fbd 7d11 593b da9d 1fbc a931 783d
000000f0: 82e6 c73b a867 11bd 1122 6cbc e1f3 62bd
00000100: de52 273c dec4 cfba cd35 793d 33ff 113a
00000110: 11b6 52bd 48e6 01b9 ee2a 36bd b392 2cbc
00000120: 30fa e0bc 9004 30bc 330d 673c a9af 373e
00000130: f561 6cbd c9fe cdbd bd75 a9bd c27a 93be
00000140: 6ffa d03c 0e0e 77bd d78e b13b a68b 42bc
00000150: 9415 3ebc 901e 96bd 918d f53c b14c 303c
00000160: 4490 26bd 0cab 733c d2f4 4cba 5c68 b4bb
00000170: 3722 98bd 99fa c73c 1317 943c 81f0 cfbd
00000180: 1e21 84bd bb15 e0ba e2b9 cd3c 4fd5 39bd
0.035977688 -0.020163244 -0.015908213 -0.10781865 0.015524213 0.0024503928 -0.09266306 -0.061491065
-0.010331051 0.0014042148 0.013867937 -0.04223159 -0.10879573 0.029919919 0.0064289076 -0.0073326947
-0.00018330532 0.014702464 -0.06293354 -0.001297799 -0.034205906 -0.06639901 -0.00084558397 0.08965697
-0.074600466 -0.010089689 0.0012895159 -0.2838717 -0.07657456 0.03330191 0.039427217 0.007156795
0.014435554 -0.048266027 0.089357324 -0.061038256 0.0040213815 -0.014378688 0.023978626 0.013701648
-0.035848327 0.017686637 0.011030068 -0.05750461 0.0023595693 0.0011440788 0.008508695 -0.037572704
-0.011607839 0.007572464 -0.12614048 0.0056846086 0.010581007 0.04119915 0.008777694 -0.0112998355
-0.046790965 0.0033121996 -0.009742225 0.060594235 0.0061004767 -0.035499245 -0.014412419 -0.055408362
0.010212628 -0.0015851518 0.060842324 0.00055693387 -0.051443163 -0.00012388185 -0.044474535 -0.010533023
-0.027463049 -0.010743275 0.014102268 0.17938103 -0.057710607 -0.10058362 -0.0827441 -0.28804594
0.025510041 -0.060316138 0.005418639 -0.011874115 -0.011601824 -0.07330048 0.02997473 0.010760472
-0.040664926 0.014872324 -0.00078184635 -0.0055056047 -0.07428401 0.024411486 0.018077409 -0.10153294
-0.06451629 -0.001709632 0.02511305 -0.045369443

sequential/dense_2/BiasAdd/ReadVariableOp f4 [50]
00000000: 0ed3 113e 3193 983d 046f 93bb c242 9dbd
00000010: 0956 9a3d d0ee 0a3c ff96 a33d 3e1e 5d3e
00000020: 2737 e5bd 5a93 23bb e893 763d d072 963d
00000030: 6755 0fbd 6baf 1b3e d9ee 2e3d 5c3d 673e
00000040: cd96 693c 3ed0 84be 2ae4 7bbd 6911 a23e
00000050: 2774 803e 7e36 b23a 24be 773e 837a 12be
00000060: 2de2 893d 8f6b b53d 236e 623d 9da8 86be
00000070: 7fac 61be c4be 9f3d fca0 553d 0ccf 1abe
00000080: e6f2 4e3d debd 783d aab0 c2bc 8a57 0b3e
00000090: 8d15 4e3e 1f6e 623e 9816 463e 8a02 493c
000000a0: 259b 4b3e f704 073e 32c4 613e 56dc 5c3c
000000b0: 408f 3a3e 3100 463e 9dba 553e 268a e83d
000000c0: f81f ea3c f900 a7bd
0.14240667 0.074499495 -0.004499318 -0.07678749 0.07535941 0.008479789 0.079877846 0.21593568
-0.1119216 -0.0024959655 0.06019965 0.073461175 -0.034993555 0.15203635 0.04270825 0.22582
0.014257145 -0.25940126 -0.06149689 0.31653908 0.25088617 0.0013596562 0.24193627 -0.14304547
0.06732593 0.08858406 0.055280816 -0.26300517 -0.22038458 0.078000575 0.05215548 -0.15118045
0.050524615 0.060727946 -0.02376588 0.13607612 0.20125408 0.2211232 0.19344556 0.012268672
0.19883402 0.13185488 0.22047499 0.013480267 0.18218708 0.1933601 0.20871969 0.11354475
0.028579697 -0.081544824

sequential/dense/BiasAdd/ReadVariableOp f4 [100]
00000000: c51c 3cbe 5835 9bbe 34af 763c 4aa1 68be
00000010: 9a62 5cbe 6c25 28be 4e10 b6be cae1 023d
00000020: d38b 743d ab76 48be 14fc 74be e7da 70be
00000030: 92c7 63be 9417 1abe 7ce8 92be 577b fbbd
00000040: bdd2 85be c26b e1bd ffd5 edbd 7bea 3ebe
00000050: 72d0 dabd c7be 3cbe 4aec 25be 6eae debd
00000060: f9a4 3ebb e266 60bd d2b9 d7bc f9c3 8ebe
00000070: c0b6 3abe 1a98 eebd a430 f2bd 9715 90be
00000080: 08b5 56be 9b9c c2be a20a 71be 2bb7 93be
00000090: 0503 c7be 0913 0cbe 5277 23be ef57 afbd
000000a0: d0f5 f7bd 344a 23be 6ad5 83be 25a0 c3bd
000000b0: 7b77 ebbd c97a 29be d126 46be 8af3 07be
000000c0: 90cd 68be 6794 7ebe a739 adbd d43b 64be
000000d0: c22c 49be e0bf 46be ad28 30be cfc2 3cbe
000000e0: bbc2 9abe e307 93be 4f55 d9be 23c9 3bbe
000000f0: 4f49 0fbd 96d2 52be 5aa9 5fbe 432b 9c3d
00000100: 82d5 51be 6a60 c0bd c30b 5fbe 87f3 edbd
00000110: abc3 06be 6431 f4bd 056c 63be e051 72bc
00000120: 09e5 75bd 6500 d2bd b56c 11be 9326 9bbe
00000130: 03c8 6bbe 9b68 78be 3f71 c4bd a103 acbd
00000140: aa38 33be 1d74 5fbe cf09 2b3e eb25 00bd
00000150: c2f8 a1be 684a bbbd c7e5 fdbd db72 ecbd
00000160: 6400 28be a73b e4bd cc57 82be 0a43 44be
00000170: bac5 28be 6d54 5bbe e2bc aabe ae54 2fbe
00000180: 2354 2ebe d1cf 4cbe 2f0a 5abe 52e5 13be
-0.1837035 -0.30314136 0.01505642 -0.22717777 -0.21521989 -0.16420525 -0.35559314 0.03195361
0.05970366 -0.19576518 -0.23924285 -0.23521005 -0.22244099 -0.15048057 -0.28692997 -0.122793846
-0.26137343 -0.11006881 -0.11613082 -0.18644135 -0.10684289 -0.18432151 -0.16203418 -0.108731136
-0.002909003 -0.054785617 -0.026333723 -0.2788389 -0.18233776 -0.11650105 -0.11825684 -0.28141472
-0.20967495 -0.38010105 -0.23539212 -0.28850684 -0.3886949 -0.13679136 -0.15963486 -0.08561694
-0.12107432 -0.15946275 -0.2574876 -0.095520295 -0.114973985 -0.16550745 -0.19350745 -0.13276497
-0.22734666 -0.24861299 -0.08458262 -0.22288448 -0.1964598 -0.19409132 -0.17203017 -0.18433689
-0.30226693 -0.28716955 -0.42447898 -0.18338446 -0.034982022 -0.20588145 -0.21841946 0.07625439
-0.20491603 -0.093933895 -0.2178183 -0.11618715 -0.13160579 -0.11923483 -0.22209175 -0.014790028
-0.060032878 -0.102539815 -0.14201625 -0.30302867 -0.23025517 -0.24258654 -0.095919125 -0.0839913
-0.17502084 -0.21821637 0.1670296 -0.03128616 -0.316351 -0.09145051 -0.12397342 -0.115453444
-0.16406399 -0.1114419 -0.2545761 -0.19166198 -0.16481677 -0.21418925 -0.3334723 -0.17122146
-0.17024283 -0.2000115 -0.21292947 -0.14442948

sequential/dense/MatMul f4 [100, 10]
00000000: 0a21 8cbc bbf2 0a3e 65d8 263d ec4f d7b9
00000010: e875 c4bc fa1f a53d 20a2 7bbd 465a 83ba
00000020: 1a18 0b3b 74c0 1cba 7bb2 22be 52b7 42bd
00000030: a495 163e d9b8 41be 3b00 6bbd f2fb 19be
00000040: f27d a13d ea64 bd3c 7f66 f5bb c46b a03d
00000050: 819c a7bd df2c fbbd 2a56 68bd 51d9 143e
00000060: 2693 debd f4be 3c3d 0708 c0bd 8e5c 34be
00000070: f578 2d3d 513d 043e ec23 a3bd 879c ee3c
00000080: 8a34 013e 96ce 313d e024 1ebd 0b31 1fbe
00000090: bde6 a43d 9e59 7b3d 9d13 123d 0f97 dfbc
000000a0: 0d0a d93d 234f d73e 3512 2b3d b0bd e2bc
000000b0: c657 4cbd 98cb c43d 3fdf 83bd daa1 9bbc
000000c0: f631 953c 8c42 3dbd 9810 1f3e 465b 3c3e
000000d0: d0c7 7c3c fe6b 02be b3bb 753d 9dc8 68bd
000000e0: 165d 433d 1c1f 0a3c 9bb8 5b3d 37a6 45bd
000000f0: bc92 033d e5c0 21bd 8fcc 50be 1732 f73d
00000100: d69e 28be b18b dfbd b33e 70bd 1bba 233d
00000110: 638c a43c ffe9 503d c44d a3ba 4076 b8be
00000120: eade dc3c 0219 733c 8e1d a5bc f29a 12be
00000130: a0a1 813d 5c08 4ebd e557 3bbe e5bb 7b3c
00000140: 8f81 ec3d 2c49 b3be ddb4 69be 3378 9abc
00000150: abe9 01bd 93c6 8f3c 0f27 8a3d ac32 36be
00000160: b556 d5bb 7be7 64bd 31ab 70bd fdd3 c03e
00000170: c3ce 563d 2357 0b3c de9a c4bd 2744 783e
00000180: b07e dcbd 1bce 203d 44f8 683d 4c0b 903b
00000190: 2c06 37bd 0abf adbe b264 a13d 3c67 e13c
000001a0: 592d a4bd 4840 ff3c a220 66bc 8822 ad3c
000001b0: 69be e33c 111b 783d 30dc 95bd 592b 173e
000001c0: ef7d 1c3d bea1 1cbd 70dc ee3c 6743 bf3d
000001d0: 0cd5 2bbd 1f2d 0dbd b20d 073d bd36 c6bc
000001e0: 2d70 753a 42df bd3d f70f d1bd ad70 513e
000001f0: d6b0 11be f5fa 96bb 4938 fcbd bd7b f33d
00000200: 860f e23d b1bf 433d 376b 1e3e 2d77 e9bd
00000210: ec84 22be 9ce4 69bc 0f71 c13d c028 05bd
00000220: ce12 87bd 7828 dd3b a469 63bc 5286 56ba
00000230: ee65 43bd ae59 06be 553b da3d 9cc2 48be
00000240: 9e7a a53d 242b c93c f6ac e03c 4f77 1dbe
00000250: f51c afbc 3909 28be ea33 c2bc fae8 073e
00000260: a5f7 1f3e ae5a f6bd 4dc8 eb3c ae31 01bd
00000270: 075b ad3d ff46 86bd 0467 55bd 602e 0cbd
00000280: b666 613d 97e3 8d3e a910 663d 136a 533d
00000290: 5e71 8fbd 80a2 973d 1b67 d0bd 5072 50bc
000002a0: fcba 0ebd 0c55 033e 1dd1 b43d acac adbe
000002b0: 244f 05be 7203 bb3d 602e 3abe 2559 f73d
000002c0: c8e7 c7bb c345 a4bc 6b11 a7bc 50fa a7bd
000002d0: bdd3 93bc 71a8 153e 3894 853e 23a5 6fbd
000002e0: 4f97 8c3d 0279 3cbe 99d4 eabb 95f0 2bbd
000002f0: c04f 41bd 6c85 2dbd 16e2 0fbd 787b c03d
00000300: 34ee 6ebc d028 3b3e 767a 5bbd 88ed d7bd
00000310: 37ac cdbd c8a0 a43b f540 5bbc 559a 97bc
00000320: 1041 d0bd e383 ff3e 289d bebc 3a05 94bd
00000330: 710f 803e 2983 c83d 4d53 80bd bb8e 153c
00000340: 4318 b1bc b813 b93d 4322 253d 20b5 993e
00000350: edc9 22be 614c d9bd 537d af3d 457a 3d3e
00000360: 340c a8bc e76a dd3c 2f29 b93c b376 773d
00000370: 8303 9ebd 07d3 693e c222 0f3e f0c9 18be
00000380: e99d 8ebd 5e03 5c3e df7f 5a3d 707c 743d
00000390: e913 a13d 7948 bf3d d746 f6bc 01c8 a83d
000003a0: 6913 70be 52aa 3d3e 0177 ea3d 4c85 84bd
000003b0: 6125 f7bd d8eb dcbd cb1b de3d 739e 023e
000003c0: 2d95 533e bf43 77be 9491 0dbd a515 e3bc
000003d0: ceeb b9bd 6681 2ebe cf4c 923d 4936 60be
000003e0: 41f2 24bd 0333 69bd 16d4 94bd 460b ebbd
000003f0: 94dc 773e 007a 5fbd 3399 893c 75db 01be
-0.017105598 0.13569157 0.040733714 -0.00041067542 -0.023982003 0.0806274 -0.06143391 -0.001002141
0.0021224082 -0.00059796055 -0.15888397 -0.04753811 0.14705521 -0.1891817 -0.057373267 -0.15037516
0.0788535 0.023119409 -0.007489025 0.07833055 -0.081841476 -0.12264418 -0.056722797 0.14536025
-0.1086791 0.046080545 -0.09376531 -0.17613432 0.04235168 0.12914015 -0.07965836 0.029127372
0.12617698 0.043409906 -0.038609385 -0.15546052 0.08051822 0.061364762 0.035663236 -0.02729371
0.1059762 0.42052564 0.04176541 -0.02767834 -0.049888395 0.09609145 -0.06439065 -0.018998075
0.0182123 -0.046206042 0.15533674 0.18394193 0.015428498 -0.12736508 0.059993457 -0.056831945
0.047696196 0.008430269 0.05364285 -0.048254218 0.03212236 -0.0394906 -0.20390533 0.12070101
-0.16466841 -0.10915316 -0.058653545 0.039972406 0.020086473 0.051004406 -0.0012459089 -0.36027718
0.026961762 0.014837505 -0.020155694 -0.1431692 0.06329656 -0.05030094 -0.18295248 0.015364622
0.11548149 -0.35016763 -0.228229 -0.018856144 -0.031716984 0.017550742 0.06745731 -0.17792767
-0.0065105804 -0.05588482 -0.05875701 0.37661734 0.052443277 0.008504662 -0.09599851 0.24244748
-0.10766351 0.039259057 0.05687739 0.004395878 -0.04468362 -0.33934814 0.07880534 0.027515046
-0.08016462 0.031158581 -0.014045866 0.02113463 0.027800756 0.060572688 -0.07317388 0.1476263
0.038206037 -0.038240187 0.029157847 0.09339028 -0.041951224 -0.03446686 0.032972045 -0.024196023
0.0009362724 0.09271099 -0.10208123 0.20453139 -0.14227614 -0.004607553 -0.12315423 0.118888356
0.11038117 0.047790233 0.15470587 -0.11399684 -0.15871018 -0.014275696 0.09445392 -0.032509565
-0.065953836 0.006749209 -0.013880167 -0.00081834674 -0.04770463 -0.13120148 0.10655848 -0.19605488
0.08080028 0.024556704 0.027426224 -0.15377544 -0.021376112 -0.16409768 -0.023706395 0.13272467
0.15621813 -0.120290145 0.028782034 -0.03154152 0.08464628 -0.0655651 -0.052100196 -0.034223914
0.055029593 0.277127 0.056168232 0.051614832 -0.07004045 0.07404041 -0.10175916 -0.012722567
-0.03484629 0.12825412 0.08828948 -0.339208 -0.13018471 0.091315165 -0.18181753 0.1207755
-0.0061006285 -0.020052796 -0.020394048 -0.0820204 -0.0180453 0.14615037 0.26089644 -0.058507096
0.06864797 -0.18405536 -0.007166457 -0.041977484 -0.047195196 -0.04236357 -0.03512772 0.0939855
-0.014583159 0.18277287 -0.053583585 -0.10543352 -0.10042613 0.0050240494 -0.013382186 -0.018506208
-0.1016866 0.4990531 -0.023268297 -0.072275594 0.2501178 0.09790642 -0.06265888 0.009128268
-0.021618014 0.09036964 0.040315878 0.30021 -0.15897341 -0.10610271 0.085688256 0.18503673
-0.020513631 0.027028514 0.022602646 0.060415935 -0.077155136 0.22834407 0.13978103 -0.14920783
-0.06963713 0.2148566 0.053344604 0.059688985 0.07865126 0.09339995 -0.030063076 0.08241273
-0.23444904 0.18522003 0.114484794 -0.06470737 -0.12067676 -0.10787171 0.10845145 0.12755756
0.20662375 -0.24146937 -0.034562662 -0.027720282 -0.09078179 -0.17041549 0.07143556 -0.21895708
-0.040270094 -0.056933414 -0.07267015 -0.114767596 0.24205238 -0.054559708 0.016796684 -0.12681372

sequential/dense_1/MatMul i1 [100, 100] scale=0.0047769076 zero_point=0
00000000: fcde f408 efd7 1ed9 ece0 0f1d f9e9 07f7
00000010: 00f6 c206 c6f4 c1f2 00e1 e0ff 0bfb bcf7
00000020: 17eb e4fb fdd1 fdd7 01f6 fac9 000e fe16
00000030: 06fb d0ff f1f1 fce6 11e6 e210 18ee e7e4
00000040: e5f7 10e5 fe21 e503 f559 06e5 e10f 03f6
00000050: 03d6 ed02 f600 95f8 0ec8 0119 f1e9 10e8
00000060: c725 f1c5 07e8 d614 26f2 e8d0 cefd f804
00000070: e603 13f2 08e9 14ec feea 01e7 09df fbfe
00000080: 00fd f4e1 eadc 0bd4 f8fa ed06 060a ef16
00000090: fe03 ffe8 f4e1 1528 f4ef d10c e3dc d9fe
000000a0: f71b e4ef e6f8 0bd8 0006 0f0f cfda 0d09
000000b0: 29fd 11fe 0707 d8ef fa0c ef1b 2217 0a02
000000c0: 1e07 e21d f306 2a0d 1af8 f418 d211 fd15
000000d0: 06d9 f4ff 1505 f111 d4ee eee3 e7d5 1907
000000e0: 16f3 0503 0de5 f0f0 2018 d3f8 f011 daff
000000f0: 0a0a fae3 0ec7 f3f4 01ea ebe8 f4ec fff6
-0.01910763 -0.16241486 -0.05732289 0.03821526 -0.08120743 -0.19585322 0.14330722 -0.1862994
-0.095538154 -0.15286104 0.07165361 0.13853031 -0.033438355 -0.10986888 0.033438355 -0.042992167
0.0 -0.047769077 -0.29616827 0.028661445 -0.27706063 -0.05732289 -0.3009452 -0.06687671
0.0 -0.14808413 -0.15286104 -0.0047769076 0.052545983 -0.023884539 -0.32482973 -0.042992167
0.10986888 -0.10031506 -0.13375342 -0.023884539 -0.014330722 -0.22451466 -0.014330722 -0.19585322
0.0047769076 -0.047769077 -0.028661445 -0.2627299 0.0 0.06687671 -0.009553815 0.10509197
0.028661445 -0.023884539 -0.22929156 -0.0047769076 -0.07165361 -0.07165361 -0.01910763 -0.1241996
0.08120743 -0.1241996 -0.14330722 0.07643052 0.11464578 -0.085984334 -0.11942269 -0.13375342
-0.12897651 -0.042992167 0.07643052 -0.12897651 -0.009553815 0.15763795 -0.12897651 0.014330722
-0.052545983 0.4251448 0.028661445 -0.12897651 -0.14808413 0.07165361 0.014330722 -0.047769077
0.014330722 -0.20063011 -0.090761244 0.009553815 -0.047769077 0.0 -0.51112914 -0.03821526
0.06687671 -0.26750684 0.0047769076 0.11942269 -0.07165361 -0.10986888 0.07643052 -0.11464578
-0.27228373 0.17674558 -0.07165361 -0.28183755 0.033438355 -0.11464578 -0.20063011 0.095538154
0.18152249 -0.06687671 -0.11464578 -0.22929156 -0.23884538 -0.014330722 -0.03821526 0.01910763
-0.1241996 0.014330722 0.090761244 -0.06687671 0.03821526 -0.10986888 0.095538154 -0.095538154
-0.009553815 -0.10509197 0.0047769076 -0.11942269 0.042992167 -0.15763795 -0.023884539 -0.009553815
0.0 -0.014330722 -0.05732289 -0.14808413 -0.10509197 -0.17196867 0.052545983 -0.21018393
-0.03821526 -0.028661445 -0.090761244 0.028661445 0.028661445 0.047769077 -0.08120743 0.10509197
-0.009553815 0.014330722 -0.0047769076 -0.11464578 -0.05732289 -0.14808413 0.10031506 0.19107631
-0.05732289 -0.08120743 -0.22451466 0.05732289 -0.13853031 -0.17196867 -0.1862994 -0.009553815
-0.042992167 0.12897651 -0.13375342 -0.08120743 -0.1241996 -0.03821526 0.052545983 -0.19107631
0.0 0.028661445 0.07165361 0.07165361 -0.23406847 -0.18152249 0.0620998 0.042992167
0.19585322 -0.014330722 0.08120743 -0.009553815 0.033438355 0.033438355 -0.19107631 -0.08120743
-0.028661445 0.05732289 -0.08120743 0.12897651 0.16241486 0.10986888 0.047769077 0.009553815
0.14330722 0.033438355 -0.14330722 0.13853031 -0.0620998 0.028661445 0.20063011 0.0620998
0.1241996 -0.03821526 -0.05732289 0.11464578 -0.21973775 0.08120743 -0.014330722 0.10031506
0.028661445 -0.1862994 -0.05732289 -0.0047769076 0.10031506 0.023884539 -0.07165361 0.08120743
-0.21018393 -0.085984334 -0.085984334 -0.13853031 -0.11942269 -0.20540702 0.11942269 0.033438355
0.10509197 -0.0620998 0.023884539 0.014330722 0.0620998 -0.12897651 -0.07643052 -0.07643052
0.15286104 0.11464578 -0.21496084 -0.03821526 -0.07643052 0.08120743 -0.18152249 -0.0047769076
0.047769077 0.047769077 -0.028661445 -0.13853031 0.06687671 -0.27228373 -0.0620998 -0.05732289
0.0047769076 -0.10509197 -0.10031506 -0.11464578 -0.05732289 -0.095538154 -0.0047769076 -0.047769077

sequential/dense_2/MatMul i1 [50, 100] scale=0.0059658037 zero_point=0
00000000: e8df ecfc 10e2 f518 e40f f807 28f2 1911
00000010: 0ff5 0bf3 1419 17ed edfa ebfe 100a 0808
00000020: 01f4 1d1f dce4 e9fd 0e1c eb18 f41e ece4
00000030: eff4 1be8 faf3 fe02 f2e5 100a 03eb db18
00000040: 2009 08f2 1122 1ce5 f509 0d0f ffef 1e26
00000050: 0509 0cfc fde7 fffe ee1c 1efe 11f7 f9e8
00000060: eff0 16f1 fbf8 07e9 e9e8 10ea f006 f4dd
00000070: e1cd f6f5 02f8 f3ea 17fb f307 fbf9 10ca
00000080: f9fc 0981 01ed df11 04fd e3db 00e9 e70c
00000090: e2d3 e601 fa09 fee1 0104 06ec e609 bbcc
000000a0: f9fd fb16 0702 cde5 1ad4 d8f4 0bf6 dbe3
000000b0: f7e9 e7c5 b7df 0805 dce5 dfdc 17fc f916
000000c0: 09fa 0d04 020e e3f5 fee3 b3f5 1612 f6fe
000000d0: 0c04 ff0b 0cee 0df1 e0e4 18ef 1ae8 0d1b
000000e0: f8fd e7dd f0e0 e80d 10f2 de04 1310 f7f6
000000f0: e2fa e10a ecff e405 1ffe 13db e510 edfe
-0.1431793 -0.19687152 -0.11931607 -0.023863215 0.09545286 -0.1789741 -0.06562384 0.1431793
-0.16704251 0.08948705 -0.04772643 0.041760627 0.23863214 -0.083521254 0.1491451 0.10141867
0.08948705 -0.06562384 0.06562384 -0.07755545 0.11931607 0.1491451 0.13721348 -0.11335027
-0.11335027 -0.035794824 -0.12528189 -0.0119316075 0.09545286 0.059658036 0.04772643 0.04772643
0.0059658037 -0.07158965 0.17300831 0.18493992 -0.21476893 -0.16704251 -0.13721348 -0.017897412
0.083521254 0.16704251 -0.12528189 0.1431793 -0.07158965 0.1789741 -0.11931607 -0.16704251
-0.10141867 -0.07158965 0.1610767 -0.1431793 -0.035794824 -0.07755545 -0.0119316075 0.0119316075
-0.083521254 -0.1610767 0.09545286 0.059658036 0.017897412 -0.12528189 -0.22073475 0.1431793
0.19090572 0.053692233 0.04772643 -0.083521254 0.10141867 0.20283733 0.16704251 -0.1610767
-0.06562384 0.053692233 0.07755545 0.08948705 -0.0059658037 -0.10141867 0.1789741 0.22670054
0.029829018 0.053692233 0.07158965 -0.023863215 -0.017897412 -0.1491451 -0.0059658037 -0.0119316075
-0.107384466 0.16704251 0.1789741 -0.0119316075 0.10141867 -0.053692233 -0.041760627 -0.1431793
-0.10141867 -0.09545286 0.13124768 -0.08948705 -0.029829018 -0.04772643 0.041760627 -0.13721348
-0.13721348 -0.1431793 0.09545286 -0.13124768 -0.09545286 0.035794824 -0.07158965 -0.20880313
-0.18493992 -0.304256 -0.059658036 -0.06562384 0.0119316075 -0.04772643 -0.07755545 -0.13124768
0.13721348 -0.029829018 -0.07755545 0.041760627 -0.029829018 -0.041760627 0.09545286 -0.3221534
-0.041760627 -0.023863215 0.053692233 -0.75765705 0.0059658037 -0.11335027 -0.19687152 0.10141867
0.023863215 -0.017897412 -0.17300831 -0.22073475 0.0 -0.13721348 -0.1491451 0.07158965
-0.1789741 -0.26846117 -0.1551109 0.0059658037 -0.035794824 0.053692233 -0.0119316075 -0.18493992
0.0059658037 0.023863215 0.035794824 -0.11931607 -0.1551109 0.053692233 -0.41164047 -0.3102218
-0.041760627 -0.017897412 -0.029829018 0.13124768 0.041760627 0.0119316075 -0.304256 -0.1610767
0.1551109 -0.26249537 -0.23863214 -0.07158965 0.06562384 -0.059658036 -0.22073475 -0.17300831
-0.053692233 -0.13721348 -0.1491451 -0.3519824 -0.43550366 -0.19687152 0.04772643 0.029829018
-0.21476893 -0.1610767 -0.19687152 -0.21476893 0.13721348 -0.023863215 -0.041760627 0.13124768
0.053692233 -0.035794824 0.07755545 0.023863215 0.0119316075 0.083521254 -0.17300831 -0.06562384
-0.0119316075 -0.17300831 -0.4593669 -0.06562384 0.13124768 0.107384466 -0.059658036 -0.0119316075
0.07158965 0.023863215 -0.0059658037 0.06562384 0.07158965 -0.107384466 0.07755545 -0.08948705
-0.19090572 -0.16704251 0.1431793 -0.10141867 0.1551109 -0.1431793 0.07755545 0.1610767
-0.04772643 -0.017897412 -0.1491451 -0.20880313 -0.09545286 -0.19090572 -0.1431793 0.07755545
0.09545286 -0.083521254 -0.20283733 0.023863215 0.11335027 0.09545286 -0.053692233 -0.059658036
-0.1789741 -0.035794824 -0.18493992 0.059658036 -0.11931607 -0.0059658037 -0.16704251 0.029829018
0.18493992 -0.0119316075 0.11335027 -0.22073475 -0.1610767 0.09545286 -0.11335027 -0.0119316075
