tflite_models/xgboost_m2cgen.tflite (tflite, 179976 bytes, 7 tensors)

sequential/dense2/MatMul;sequential/dense2/Relu;sequential/dense2/BiasAdd f4 [128]
000000 0c 26 73 40 4c 02 66 40 7f 11 ac 3f 10 1b 9b bf
       3.7991972 3.5938902 1.3442839 -1.2117634
000010 27 e1 2f 3f 4c 68 4d 40 d4 18 0c 3e 96 2c 8d c0
       0.6870293 3.2094908 0.13681346 -4.4116926
000020 53 f4 fb 3f 48 bd f0 bf fd bd 30 40 2b 3d 5d 40
       1.9683937 -1.8807764 2.761596 3.4568584
000030 c6 19 47 40 5e a3 6a c0 5a 7e 1a 40 f0 1d 72 3e
       3.110948 -3.6662211 2.413962 0.23644233
000040 4a 80 59 40 db 57 fd c0 8f b5 ce 40 ee 19 cd bf
       3.3984551 -7.9169745 6.459663 -1.6023538
000050 3a 65 77 c0 35 d3 94 c0 af 4d f4 c0 9d be 5c c0
       -3.8655534 -4.650782 -7.634483 -3.449134
000060 7b f3 cb 40 9c b2 7c bf df 1a 57 c0 9a b3 9a 3f
       6.3734717 -0.98710036 -3.361015 1.208606
000070 2d 3f d3 bf 48 9b fb 3f 9e fc fe bf 6c fb 5f bf
       -1.6503655 1.9656763 -1.9920843 -0.87493014
000080 c0 97 28 c0 e5 ea e2 3e ec 82 02 41 ff 8d df bf
       -2.634262 0.44319835 8.156963 -1.7465209
000090 44 58 1f 40 c1 5f 10 40 6a 36 1e 40 5d 08 2b bf
       2.4897623 2.2558444 2.4720712 -0.66809636
0000a0 6d 77 87 3f 1f 3a 6e c0 73 f3 5a 40 15 ef 67 40
       1.0583321 -3.7222974 3.421109 3.6239674
0000b0 3e 85 82 c0 4d f8 1f c0 50 68 13 40 08 1b 3d c0
       -4.078765 -2.49953 2.3032417 -2.9547749
0000c0 26 f9 be 40 c5 91 b6 3f 50 02 b3 c0 38 5b 2b c0
       5.9679136 1.4263235 -5.5940323 -2.6774426
0000d0 3a 01 3a 40 60 71 7b 40 ab f7 dc 3f d7 74 03 40
       2.9063249 3.9287949 1.7263082 2.0540063
0000e0 2b e6 25 c0 68 7d ac bd 49 39 96 40 21 dd fd be
       -2.5921733 -0.08422357 4.694493 -0.4958277
0000f0 36 32 84 3f 22 05 39 40 30 9e 64 40 da 05 ac 40
       1.0327823 2.8909383 3.572155 5.3757143
000100 cd b8 be bf 1e 61 54 c0 45 5e 8a 40 ee a2 28 40
       -1.4900147 -3.3184276 4.3240075 2.6349444
000110 87 72 a9 40 20 f2 01 40 9a 48 5e 3f 27 cf ae c0
       5.2952304 2.0304031 0.8682953 -5.462787
000120 87 af 08 41 ce 57 94 3e 28 ab 2d c0 c6 78 21 40
       8.542853 0.2897324 -2.7135715 2.5229964
000130 8b 86 90 3f 0f be 6b 40 5c bb bb 40 f4 65 b5 40
       1.1291059 3.6834753 5.866621 5.6686954
000140 b1 3f 5b c0 ea b6 e4 40 07 0f 5d 40 9a c9 df 40
       -3.4257624 7.1473284 3.4540422 6.9933596
000150 84 f2 24 3e 04 51 00 c0 d1 ee 7d 40 84 0c 5d 3d
       0.16108137 -2.0049448 3.9677012 0.053967014
000160 0c a1 8b 40 89 61 7e 40 ed 12 83 3f 5f 00 d8 c0
       4.363409 3.974703 1.0240151 -6.7500453
000170 22 52 46 40 fc 53 b2 c0 18 fa 60 c0 bc 15 b3 3e
       3.098763 -5.572752 -3.5152645 0.3497752
000180 18 e3 16 bc a2 3e 99 c0 27 7e ab c0 88 c9 b3 bf
       -0.009209417 -4.7888956 -5.3591495 -1.4045877
000190 59 bb a9 40 08 3d bf bf a6 f7 c3 c0 49 99 3e c0
       5.3041196 -1.49405 -6.1239805 -2.9781058
0001a0 41 da 18 40 52 28 50 40 5f 15 92 bf b6 a2 87 40
       2.3883212 3.252461 -1.1412772 4.238612
0001b0 90 7c a1 c0 9b 96 9e 40 4f e5 49 40 52 2b 94 40
       -5.0464554 4.9558845 3.154621 4.630288
0001c0 76 8d ed bf 1b 81 d9 3f 9e f9 87 3f bf ce af bf
       -1.8558795 1.6992525 1.0623052 -1.3734969
0001d0 18 a7 d0 bf fe fc 11 c0 b3 83 be bf b9 f9 bf bf
       -1.6300993 -2.2810664 -1.4883941 -1.4998084
0001e0 78 c4 9f 3e 96 1b c4 3f 5c 4f c7 3d 33 f8 64 c0
       0.3120458 1.5320919 0.097319335 -3.5776489
0001f0 b4 87 4e bf e0 12 4c 40 0a 0a 83 40 f0 91 e8 bf
       -0.80675817 3.188652 4.0949755 -1.8169537

sequential/batch_normalization/batchnorm/mul_1;sequential/batch_normalization/batchnorm/add_1;sequential/dense2/MatMul;sequential/dense2/Relu;sequential/dense2/BiasAdd f4 [128, 256]
000000 19 35 d7 bf 4e fa 75 3f 05 4e 13 bf 8a 2f f3 3d
       -1.6813079 0.9608506 -0.57540923 0.11874302
000010 46 c2 e3 be 03 27 6d bf d0 c1 34 c0 c6 0b 10 ba
       -0.44484156 -0.9263765 -2.8243294 -0.00054949184
000020 fc c1 20 b9 3f ab 12 bf 28 1b f8 be a1 ce 28 bf
       -0.00015331054 -0.5729255 -0.4845822 -0.6594029
000030 c6 d0 30 3f 70 35 3c bf 14 b8 70 39 76 78 1f be
       0.69068563 -0.7351904 0.00022956758 -0.15573296
000040 60 58 01 ba 3b b0 44 bb c4 ce 5a bf e5 85 26 c0
       -0.00049341284 -0.0030012268 -0.8547175 -2.6019223
000050 86 79 aa 37 28 cc c0 3e 5c b1 b6 38 3d 5b 1c 40
       2.0322168e-05 0.3765576 8.711472e-05 2.4430687
000060 3a 32 ed 3f 27 0c 7e c0 a1 17 24 bf 6d 76 0f ba
       1.8530953 -3.9694917 -0.64098555 -0.0005472664
000070 f8 eb 94 bc 60 bd 63 c0 97 78 d6 bc 55 f4 9b 3e
       -0.018178925 -3.5584335 -0.026180549 0.30459848
000080 87 90 3e bf e8 f1 34 c0 bf 6b 3e be 3c 43 54 bf
       -0.7443928 -2.8272648 -0.1859579 -0.8291509
000090 76 96 8e c0 0e b0 b3 3a d5 7a 8c c0 86 41 1b bf
       -4.455867 0.0013709085 -4.389994 -0.60646856
0000a0 1e 3f 87 bf dc 56 64 c0 b7 6d a9 3f c2 1a 58 3d
       -1.0566137 -3.5678015 1.3236607 0.052759893
0000b0 84 9e f8 3d 55 59 dd 3f d6 f7 40 c0 7d 5b bc be
       0.121396095 1.7292887 -3.0151267 -0.3678855
0000c0 04 b0 00 bb d3 5b 6e c0 4e d5 6b ba f3 60 36 ba
       -0.0019636163 -3.7243545 -0.00089963234 -0.00069571956
0000d0 8b 4b 43 3a b8 37 f6 bf fa 40 2a bf 00 34 f0 be
       0.00074499164 -1.9235754 -0.66505396 -0.46914673
0000e0 b2 42 ca 3a 34 60 80 bc 5f 26 27 be 3f 70 85 3f
       0.0015431254 -0.015670873 -0.16323231 1.042488
0000f0 cc 86 05 3a 3e b9 99 3a 32 42 42 3f 10 f7 79 3f
       0.00050936337 0.001172818 0.75882256 0.9764261
000100 ac 37 31 ba c6 01 6e be 39 1e cc b9 8c fc b4 39
       -0.000676031 -0.23242864 -0.0003893243 0.00034520437
000110 2f 4f 8b bd d3 98 f3 3e ae 0f 48 3f 44 22 05 c0
       -0.068022124 0.47577533 0.78148925 -2.0802164
000120 7b 62 53 bb 69 29 fb bf ae f9 c7 bd f8 36 08 3e
       -0.0032254744 -1.9622012 -0.097644195 0.13302219
000130 dc 84 b7 bf 13 1e 2f 3c dd 5a 3d b9 45 63 0e 39
       -1.433742 0.010688323 -0.00018058294 0.00013579156
000140 e5 5d c6 c0 f3 a2 65 c0 48 c1 57 3d 74 69 8c ba
       -6.1989617 -3.5880706 0.05267456 -0.001071258
000150 52 2a c6 3d 5b 9c 79 3b 1e 32 00 c0 92 48 ee 38
       0.09676041 0.003808758 -2.003059 0.00011362242
000160 0a 99 e7 3f 2e 70 1f 40 21 cd 97 b9 7d ed 5a c0
       1.8093579 2.491222 -0.00028953797 -3.4207451
000170 87 14 77 3f 6e c6 5b c0 a3 f6 d5 c0 88 8b 0d bf
       0.965157 -3.4339862 -6.686357 -0.5529103
000180 40 a1 cd bd df c1 a6 3b 29 ae b8 39 40 06 19 b9
       -0.100405216 0.005089029 0.00035224974 -0.00014593545
000190 a7 0d 46 3b 01 9a 97 3d 66 66 3d bc c2 71 07 3a
       0.003022054 0.07402421 -0.011560058 0.00051667925
0001a0 86 7e 0c bd da 72 0f ba ec 0c c1 39 a7 6e d2 3f
       -0.03430035 -0.00054721313 0.00036821456 1.6440018
0001b0 36 c2 55 bd 7e ae df 3a a4 10 96 3c e7 56 e6 3f
       -0.052187167 0.0017065553 0.018318482 1.799527
0001c0 f5 f7 b5 be 63 96 b5 3b e8 de 61 3e 95 88 ab be
       -0.3554074 0.005541609 0.22057688 -0.3350264
0001d0 54 cd 90 3e 4d a3 bf 38 8e df 7f bd 1a ac 92 c0
       0.28281653 9.138007e-05 -0.062469058 -4.5835085
0001e0 7e 95 6a 38 82 95 85 3a e7 b5 29 bc 4d fd 47 bf
       5.5929173e-05 0.0010191652 -0.01035831 -0.7812088
0001f0 fa 3d f7 3f d2 67 5a 40 19 73 81 40 23 4f 17 3f
       1.9315789 3.4125867 4.0453 0.5910513
000200 a4 5f 59 3e a8 0c 6c 3b 8e 1d 38 3a 78 cb 03 be
       0.2122789 0.0036018286 0.0007023447 -0.12870586
000210 57 2c c9 3a eb b6 cf 3f 95 e4 ce bf b3 79 9e 3a
       0.0015348297 1.6227697 -1.6163508 0.0012090713
000220 42 ab 7f 3f 58 46 bb b9 20 d7 ce ba 76 4b 23 3a
       0.99870694 -0.0003571983 -0.0015780665 0.0006229201
000230 ab 4e 10 3f f1 6d 31 be 0c 5f fa 39 3b 38 b8 3a
       0.5637004 -0.17327096 0.0004775453 0.0014054844
000240 d9 24 43 3f d8 a1 f0 3f ad 7c 48 ba c4 de ab be
       0.762281 1.8799391 -0.00076479727 -0.33568394
000250 54 2f 51 40 f7 51 05 3a 0e a3 19 c0 48 1b f1 3f
       3.2685137 0.0005085761 -2.400577 1.883645
000260 9e 0f 71 3f 1d 38 43 b9 26 ba 2b bd b8 7d fc 3d
       0.94164455 -0.00018617553 -0.04192557 0.123286664
000270 8f df c6 b8 f0 96 3c bb 01 84 3e 40 e5 10 6e bf
       -9.483017e-05 -0.002877649 2.9768069 -0.9299453
000280 5b a3 8c c0 00 f1 86 bb 16 f5 aa 3c 60 d2 52 bf
       -4.394941 -0.004118085 0.02086882 -0.82352257
000290 8c 5e dc 3c 3e f8 ef 3d 70 67 4a c0 19 50 55 c0
       0.026900552 0.1171727 -3.1625633 -3.3330138
0002a0 13 8c e1 3f e1 65 c1 3f d7 8b 11 bb df c6 85 c0
       1.7620872 1.5109216 -0.0022208595 -4.1805263
0002b0 90 96 53 3d 23 19 32 3a 72 fa 55 bf 84 b5 e5 be
       0.05165726 0.0006793907 -0.83585274 -0.44865048
0002c0 cd 74 df be e5 cc e7 bf 62 e3 11 bd f2 c0 b7 bf
       -0.436438 -1.8109404 -0.03561724 -1.4355757
0002d0 32 76 7d bf 46 cf df bf ee e1 2b 3f 27 16 b0 bf
       -0.99008477 -1.748513 0.67141616 -1.375676
0002e0 4b 73 d6 40 cb c5 8d be 85 40 24 bb 9b e1 b5 be
       6.701574 -0.27689967 -0.002506287 -0.35523686
0002f0 14 1c 49 bb 6e b5 fa 39 b3 ef 65 c0 ff c3 7d bb
       -0.0030686902 0.00047818891 -3.592755 -0.003872156
000300 c1 92 b5 bd a7 67 6f 39 93 ce 37 3f 51 bc 11 39
       -0.08865882 0.0002283143 0.7179958 0.00013898431
000310 cb ea bf b9 28 87 d7 37 47 4e 65 c0 62 75 3f 40
       -0.00036605293 2.5692934e-05 -3.5829027 2.9915395
000320 d9 3d 89 bf db 97 30 3e 4d 3a 95 3b d9 5e 89 3e
       -1.0722 0.17245428 0.004554069 0.26830176
000330 99 9c 81 be 7e d3 3c bd 1e d1 79 40 88 6f a3 bf
       -0.25314787 -0.046100132 3.9033885 -1.2768412
000340 01 5f 1c 3b 17 9e 91 40 52 a7 44 40 66 95 be bd
       0.0023860338 4.550548 3.0727124 -0.09305839
000350 fd 87 a7 c0 5c 5f 96 bd e6 f5 d6 3f 63 ed 11 3a
       -5.23535 -0.07342407 1.6793792 0.00055666844
000360 3e 83 83 ba 7e e3 ef bd af a5 91 ba eb 97 e6 3d
       -0.001003362 -0.117133126 -0.0011112 0.11259445
000370 a4 e9 89 c0 15 86 72 b9 54 48 94 ba 25 a0 88 3f
       -4.3097706 -0.00023128868 -0.0011313059 1.0673872
000380 74 bf c9 bf ae 22 82 ba ba 09 9b bf 74 27 6f 40
       -1.5761552 -0.0009928548 -1.2112343 3.736783
000390 0c 81 3b 3d 25 c4 9a 3f 5d 93 9b be 4a 8b 14 39
       0.045777366 1.2091109 -0.30385867 0.00014166269
0003a0 f7 5d 14 3b f7 d6 9d be 07 13 00 ba c8 8a 21 b8
       0.0022639015 -0.30828068 -0.0004885648 -3.851464e-05
0003b0 83 95 c5 3e 21 f4 eb bf d4 55 87 b8 aa d8 74 3a
       0.3859063 -1.8433877 -6.4532884e-05 0.0009340147
0003c0 de 8f 6f bb fb fe 84 38 43 d0 1d b9 77 51 76 c0
       -0.0036554257 6.341744e-05 -0.0001505027 -3.8487222
0003d0 d2 f1 0f bb a1 a7 be c0 72 57 df 39 d8 ba 5b c0
       -0.0021964204 -5.9579625 0.00042599026 -3.433279
0003e0 61 a6 8b c0 6d 01 a0 39 82 bc dd 3e 6a 5c 19 3e
       -4.36406 0.0003051864 0.43307883 0.1497666
0003f0 18 c1 57 bf 2a 9c 2f c0 d6 66 0b 3c 64 6e 16 ba
       -0.8427901 -2.7439065 0.008508405 -0.00057384954

sequential/dense3/MatMul;sequential/dense3/Relu;sequential/dense3/BiasAdd f4 [64]
000000 1f b6 4a c0 a9 61 41 3f d4 da c2 3f 47 ee b7 3f
       -3.1673658 0.7553964 1.5223031 1.4369591
000010 37 0d 4d 3f b8 8d b0 bf 74 91 63 3e 5e 90 f0 bf
       0.8009829 -1.3793249 0.22223455 -1.8794057
000020 47 3d da 3f 81 e8 68 3f c5 86 3a bf c0 2c 74 be
       1.704995 0.9097977 -0.7286189 -0.23845196
000030 d0 87 6e bf cd 82 4b c0 cd a0 13 c0 b2 4c 5e be
       -0.93175983 -3.1798584 -2.3066895 -0.21708944
000040 db e7 d6 3e 51 4b 98 3f cc bd bd 3f 9e 8d 8f be
       0.41973767 1.1897985 1.4823546 -0.28037733
000050 57 6c 95 be 7a a4 53 bf 4e e1 23 3f 8b c6 22 3f
       -0.2918422 -0.82672846 0.6401566 0.635842
000060 b7 a3 e4 3f 26 99 05 3e 8f bc 18 3f 5e fa c1 be
       1.7862462 0.13046703 0.5966272 -0.37886328
000070 15 52 8a 3f 91 f9 e7 bd 89 9b e9 3e 8e 26 86 be
       1.08063 -0.11326898 0.45626476 -0.2620129
000080 07 bf 48 bf ca 6d 21 c0 49 e9 36 3f 37 04 f2 3e
       -0.78416485 -2.522326 0.71449715 0.4726884
000090 fb 8a bc 3f 53 07 64 bf 88 07 e3 bf ab 28 8a 3f
       1.4729913 -0.89073676 -1.7736673 1.0793661
0000a0 9b 4f 85 3f 7b d1 cc bf d3 e6 4a c0 ef da 36 bf
       1.0414919 -1.6001428 -3.1703384 -0.71427816
0000b0 95 d7 b5 bf 98 eb bb 3f 65 c7 1d 3f 6a b5 e3 3e
       -1.4206415 1.4681273 0.61632377 0.44474345
0000c0 f6 61 7a 3f b2 de 3e 3f f2 08 ce be ce 52 9d 3e
       0.97805727 0.74558556 -0.402412 0.30727237
0000d0 3e 7c 55 3f fd f0 81 3f 8e 54 44 3f f0 5e 03 40
       0.83392704 1.0151669 0.7669152 2.0526695
0000e0 2a 4c a5 3d 81 e1 29 3e cd b8 76 3f 58 a3 1d be
       0.08071168 0.16589929 0.96375734 -0.15394342
0000f0 0a cf d5 3e 23 1d 06 c0 0a 7f e2 3f ba 9f 04 40
       0.4175952 -2.0955284 1.7695019 2.072249

sequential/batch_normalization_1/batchnorm/mul_1;sequential/batch_normalization_1/batchnorm/add_1;sequential/dense3/MatMul;sequential/dense3/Relu;sequential/dense3/BiasAdd f4 [64, 128]
000000 b4 b5 20 be df f8 ae be 0f 4a 08 3e 4f 2c d4 bc
       -0.15694314 -0.3417425 0.13309501 -0.025900034
000010 03 61 84 be 81 b6 ea 3c 2f 4d 4a 3e a0 e5 90 bb
       -0.25855264 0.028651478 0.19756006 -0.0044219047
000020 70 f4 5e 3e a2 82 48 3e 90 16 5d 3d ee ff 12 3d
       0.21772933 0.19581082 0.053976595 0.035888605
000030 f2 7b af 3d 1a 41 49 bc 53 32 53 3d a9 4b 5a be
       0.085685626 -0.012283588 0.051561665 -0.21317925
000040 7d fc 07 3d f9 29 0a 3d 51 72 21 3e fc c3 48 bd
       0.033199776 0.033731434 0.15766264 -0.04901503
000050 cd 79 37 bc 44 69 f8 3d bc b6 63 3d 57 8e 9d be
       -0.011198473 0.12129453 0.05559419 -0.3077266
000060 eb 8f 20 be ba fa ee bc 48 ec 86 3e 7b d9 c2 3e
       -0.156799 -0.02917229 0.26352143 0.3805655
000070 08 46 b9 3c 9f 4d c0 3d 7c 9d 80 3d da cb c7 3d
       0.022616401 0.09389805 0.06280038 0.097556785
000080 f6 34 59 3e a5 bb 8c bd 19 d9 73 3d 01 85 27 be
       0.21211609 -0.06871728 0.059533212 -0.1635933
000090 35 2b 14 bc a6 84 25 be 11 a9 60 3e 4e f5 75 3d
       -0.0090435045 -0.16163883 0.21939494 0.060048394
0000a0 b3 d8 11 3e 51 49 30 be 67 a7 b0 bd 31 79 aa bc
       0.1424282 -0.17215468 -0.086256795 -0.020809742
0000b0 9e 07 e1 3c 02 93 04 be 00 e0 5c 3d db 47 8f be
       0.027469452 -0.12946704 0.05392456 -0.2798451
0000c0 45 da 38 3b 43 c6 f8 3d 9d 6b 23 be 74 1d 43 be
       0.002820627 0.121471904 -0.1595902 -0.19054204
0000d0 4f 64 53 3e 47 c3 14 bd 39 cb 2f be cc 87 e9 bd
       0.20643733 -0.036319043 -0.17167367 -0.11402854
0000e0 ac c2 b3 bd 11 2d 27 be 1d 4d d0 3c ab 5c f1 3b
       -0.08777365 -0.16325785 0.025427395 0.007365783
0000f0 8e 9d 24 bd 7e fe 97 3e 9d c1 c8 ba 9d 8d a3 3d
       -0.04018932 0.2968635 -0.001531649 0.07985995
000100 ba f9 de b9 32 ac 3c 3c 13 03 02 be ea 79 aa 3d
       -0.000425292 0.011515664 -0.12696485 0.083240345
000110 0f 95 fa 3d 4a 45 e6 3d 30 88 d7 3c 6e 47 86 ba
       0.12235462 0.112436846 0.026310056 -0.0010244676
000120 2f 31 cc bc 53 cd f4 3d 21 cc 0a 3f 12 4a b2 bc
       -0.024925796 0.11953225 0.54217726 -0.021763835
000130 5c 6f bf bd 33 0d b1 3d 4c f3 c2 bd ec bf b9 3d
       -0.09347412 0.08645096 -0.095190614 0.09069809
000140 16 59 b3 bd 9d d7 c4 3c d2 74 43 3e b6 63 71 bd
       -0.08757226 0.024028594 0.19087532 -0.058932982
000150 52 bb 8e 3d 27 19 31 bd cc ed 9c 3c e8 1f 3a be
       0.06969322 -0.043236878 0.01915636 -0.18176234
000160 64 3c bd 3d c6 db 9f bd 1b 7c 36 3f 97 0e 91 3d
       0.09240034 -0.0780559 0.7128312 0.07082861
000170 93 c2 84 3d 7c 72 bd 3d 54 ff 19 bf fd e6 aa bc
       0.064824246 0.09250352 -0.60155225 -0.020862097
000180 eb ef e4 bd 5c 42 2f be 01 b1 a3 3d 83 96 d0 3d
       -0.11178573 -0.17115158 0.07992745 0.10184958
000190 08 e3 48 3e 75 92 6e 3d a9 76 ca 3c d9 29 2e be
       0.19617856 0.05824514 0.024714785 -0.17008151
0001a0 62 ce 77 3d ab 30 3e 3e 1f 47 81 3e 2d 3a d0 3d
       0.060499556 0.18573253 0.25249574 0.10167346
0001b0 d4 3b 41 3d 63 b2 19 ba 8c 02 0e 3e a6 e9 ff bd
       0.047176197 -0.00058630685 0.13868159 -0.12495737
0001c0 be e5 e9 3d 18 71 88 3e 82 26 c8 bd 09 95 31 3e
       0.11420773 0.26648784 -0.0977297 0.17342009
0001d0 9e 12 bf 3d 1b ae 27 be 02 45 a6 3d 80 58 33 3e
       0.09329723 -0.1637501 0.08118631 0.17514229
0001e0 ed 80 71 3e c9 f1 94 bb 5d 7d 62 3e da 0e cb bd
       0.23584338 -0.0045454246 0.22118135 -0.09914942
0001f0 0c 0b d8 bd 10 07 29 be 7c 42 dd 3d f5 ae 81 bd
       -0.10548982 -0.165066 0.108036965 -0.063321985
000200 cf d1 24 be ef 89 b4 3d 12 ba 8a be a5 59 52 3e
       -0.1609566 0.08815371 -0.27095085 0.20542009
000210 19 53 6e 3e 3d 1f 10 3e fc a6 5d 3e 2c 17 43 bd
       0.23273887 0.14074416 0.2164573 -0.04762952
000220 78 0a f7 bd b1 e5 b5 bc ee 21 dc bd 06 92 09 3e
       -0.12062544 -0.022204252 -0.10748659 0.1343461
000230 e2 09 64 bd b9 ad ae bd 25 2f 45 3d ac 48 dc 3d
       -0.055673487 -0.08529229 0.048140664 0.107560486
000240 73 a6 90 3d 72 6f 61 3b 46 34 89 3d 63 26 66 3e
       0.07062998 0.0034398702 0.066994235 0.22475581
000250 1c de 14 3e 0f 8d b9 3d 5d 73 19 3d ce 57 0c 3e
       0.14537853 0.09060108 0.037463535 0.1370537
000260 fb 3f d0 bd 7e 35 c6 bd 1f 62 74 3d 41 30 80 bf
       -0.10168453 -0.096781716 0.059663888 -1.0014726
000270 b7 1d 57 bc a6 c3 ae be 83 69 3c 3e 66 b1 6b 3d
       -0.013129643 -0.34133643 0.18399625 0.057542227
000280 8e e9 42 bb fc a4 f6 be 6c a2 62 bd 46 16 bb 3d
       -0.002974126 -0.48172748 -0.05533068 0.09135108
000290 31 10 25 3e fb 26 d3 3d 26 96 dc 3d 5d 12 82 bc
       0.16119458 0.10310169 0.10770826 -0.015877897
0002a0 a6 64 b2 bb 22 08 8e be 1e 98 a1 3b b6 d7 ea bc
       -0.005444127 -0.2774058 0.004931464 -0.028667312
0002b0 1f 0d d0 bd 46 45 4d be d1 79 4c be 4f fc 5c be
       -0.10158753 -0.20045957 -0.19968344 -0.21580623
0002c0 9d ad 14 3e 27 fa d4 bd f0 e9 1d be 88 59 0f 3e
       0.14519353 -0.10399275 -0.15421271 0.13998997
0002d0 ae 24 e3 bd 15 ca 22 3b f4 c8 94 be 88 a2 a2 3d
       -0.110909805 0.0024839689 -0.29059565 0.079411566
0002e0 6b 80 1d 3e ed cc 29 be 5a 95 39 be da 7c 1d 3e
       0.15381019 -0.16582079 -0.1812338 0.15379658
0002f0 34 35 d4 3c 5c 58 6b 3e 43 4f 7b 3d a0 bf 15 bd
       0.025904275 0.22982925 0.061354887 -0.0365597
000300 03 47 f6 ba 6b d8 6a be 58 55 fc bd 13 a8 e5 3d
       -0.0018789474 -0.2293412 -0.123209655 0.11213698
000310 94 e0 c6 bc 80 22 c0 bd 07 17 88 bd 85 64 6f bb
       -0.02427701 -0.0938158 -0.06645017 -0.003652842
000320 80 98 75 3d 37 ef 48 be 84 90 ee 3e 33 cd 79 3d
       0.05995989 -0.19622503 0.46594632 0.06098671
000330 f5 27 be 3d a0 19 0b be c3 04 9e 3d 8a 70 3b be
       0.09284965 -0.13583994 0.07715752 -0.18304649
000340 69 95 a6 3b f5 61 bc bd 12 b9 6b bd 8d a6 67 3d
       0.005083729 -0.09198371 -0.057549544 0.05655532
000350 5a 70 89 3d 92 2d 3e 3c 62 1a ad 3d 15 16 d7 bd
       0.067108825 0.0116075445 0.08452298 -0.10502259
000360 87 4f ee bd fc 1b 4f be 05 7f f0 3e 38 8d b3 3d
       -0.116362624 -0.20225519 0.46971908 0.0876717
000370 73 fd 09 bc 25 ee 92 3d dc 67 20 3d be dc 05 3e
       -0.008422243 0.07174329 0.039161548 0.13072488
000380 99 b7 8e 3e 2f e2 92 3d 84 3b 8f bd c0 0e 9a bd
       0.2787445 0.07172047 -0.069937736 -0.075223446
000390 20 9a 1f bc bc 6f b1 bb 49 93 96 3c 17 23 08 be
       -0.009741336 -0.005414931 0.018380778 -0.13294636
0003a0 e6 48 1e 3c 06 9f 5a be b8 49 06 be ba f5 47 3c
       0.009660935 -0.21349725 -0.13114059 0.012204582
0003b0 0a 2d 10 be 33 9d c6 3c 6b d2 d6 bd dd 3d 02 3d
       -0.14079681 0.02424488 -0.10489353 0.03179728
0003c0 9c f9 10 be d0 37 5e bd aa 2b 51 be 7a df 81 3e
       -0.14157718 -0.054252446 -0.20426813 0.25365812
0003d0 11 b9 46 bd 11 1d 04 be 8a d6 05 3e aa ca ed 3d
       -0.048516337 -0.12901713 0.13070121 0.11610921
0003e0 16 fb d3 3e 8b 38 17 3d de 97 94 3e 01 6c 9e 3c
       0.414025 0.036919158 0.29022115 0.01933861
0003f0 3d 53 62 3e cf 1f 7f bd 65 d3 44 bb 06 0f 14 bd
       0.22102065 -0.062286194 -0.0030033228 -0.03614714

sequential/dense1/BiasAdd/ReadVariableOp f4 [256]
000000 ae 43 93 3b eb 65 58 3d 00 00 00 00 82 2a 05 be
       0.004494152 0.05283157 0.0 -0.13004497
000010 9e c7 ff 3a ec d7 9e 3b 00 00 00 00 99 35 25 3b
       0.0019514447 0.0048475172 0.0 0.0025208949
000020 23 b8 8a 33 39 7c 39 bc 6a 87 93 bc 00 00 00 00
       6.45962e-08 -0.011321121 -0.018008906 0.0
000030 46 4a 0b 3d 00 00 00 00 e6 c2 20 3b 34 9f f0 bc
       0.03400638 0.0 0.002453023 -0.029372789
000040 e1 b2 08 bc 58 56 8a 3d 92 76 73 3a 4d 32 ce bc
       -0.008343429 0.0675475 0.00092873827 -0.02517047
000050 bd f6 7f bb 00 00 00 00 63 50 77 3b 00 00 00 00
       -0.003905698 0.0 0.0037737123 0.0
000060 5f 31 46 3e cf 5a ca 3d 00 00 00 00 c6 7a a4 37
       0.19354771 0.098806016 0.0 1.9607494e-05
000070 c9 80 5e bd 8e 69 a3 3d 12 2d ed 3c a6 01 03 bc
       -0.054322038 0.07979117 0.028952155 -0.0079959985
000080 ba a2 19 3e 00 00 00 00 d7 78 a3 3c 43 9d b8 3e
       0.15003482 0.0 0.019955082 0.3605748
000090 17 70 8e 3d 8f 14 23 3c 00 00 00 00 78 80 46 3b
       0.06954973 0.009953632 0.0 0.0030288976
0000a0 00 00 00 00 1f ff 03 bd 00 00 00 00 2e 75 ba bb
       0.0 -0.032225724 0.0 -0.0056902384
0000b0 ee d4 0f 3c 00 00 00 00 d2 b4 60 3d 9a 2a 3f bc
       0.008778794 0.0 0.054859944 -0.011667872
0000c0 38 73 1a 3d 5a 38 23 3e da 58 fc 33 86 8c 9a 3c
       0.037707537 0.15939465 1.17508264e-07 0.018865835
0000d0 19 e2 c6 3b 00 88 bc bb 59 ad c9 bb f9 18 e6 bb
       0.0060694334 -0.005753517 -0.006154698 -0.00702202
0000e0 d8 df 0a 3d e4 91 99 bc 15 a9 27 bd a4 22 19 bc
       0.03390488 -0.018746324 -0.040932734 -0.009346638
0000f0 93 b4 9b 3d 57 00 38 3b c5 18 66 38 00 00 00 00
       0.07602801 0.0028076374 5.485934e-05 0.0
000100 12 12 ab b8 81 f5 c4 3b 74 61 b7 39 f9 f4 22 b5
       -8.157281e-05 0.0060107117 0.00034977088 -6.0706185e-07
000110 1a 6a 9b bc ec e2 43 bc 2a 7e d4 3c 6b 1c b0 bc
       -0.018971492 -0.011955958 0.025939066 -0.021497926
000120 51 b7 57 bc 6a da 1d 3d 8f 2f 25 3e 76 8b 49 bc
       -0.013166265 0.038538374 0.16131423 -0.0123013165
000130 00 00 00 00 bd 51 1b 3c cb ae 95 3b a1 9d b8 b4
       0.0 0.009479937 0.004567956 -3.438736e-07
000140 00 00 00 00 87 76 91 3d cb ae ad bc c1 a7 a1 3c
       0.0 0.071026854 -0.021201512 0.019733312
000150 0e bd c8 ba a4 40 ba 3d 00 00 00 00 7b 79 00 3c
       -0.0015315132 0.090943605 0.0 0.007841463
000160 00 00 00 00 c1 eb ee 3b 96 5c 4a bb 25 e3 8c 3d
       0.0 0.0072912876 -0.003087794 0.06879262
000170 00 00 00 00 00 00 00 00 00 00 00 00 3e 9f a9 3d
       0.0 0.0 0.0 0.08282326
000180 d4 b7 7b bc e9 00 ca 3c 3c 9d 7f 3a 0a 84 1e 38
       -0.015363652 0.024658637 0.0009750908 3.7793106e-05
000190 ab df 0a 3d bc b3 0d bc 6e 34 57 3b b3 69 cf bb
       0.033904713 -0.008648809 0.0032837647 -0.006329739
0001a0 6b db ea 3c be 33 39 b4 87 e2 5a 3c 1a 6c 61 bb
       0.02866908 -1.7248291e-07 0.013359672 -0.003439671
0001b0 35 9e 1f 3d 71 9d f4 3b 0c d0 00 3c 62 34 c3 3d
       0.038969237 0.0074650575 0.007862102 0.095314756
0001c0 29 37 34 bc f2 37 99 3d 90 6d 2c bd 00 00 00 00
       -0.010999479 0.07481374 -0.042096674 0.0
0001d0 00 00 00 00 07 55 de 3c ee 8e 35 3c 22 3e 93 bb
       0.0 0.027140154 0.01108144 -0.004493491
0001e0 2b 8f bc 3b 67 fc d7 ba 3a 7a ab bc e5 2f 37 3c
       0.0057543716 -0.001647842 -0.020932306 0.011180853
0001f0 02 39 3b bd 00 00 00 00 00 00 00 00 c0 06 3d bc
       -0.045708664 0.0 0.0 -0.011537254
000200 2f 13 31 bc 20 2e 28 3d 88 2c fe 3c aa 27 c1 bc
       -0.010807796 0.041059613 0.031027094 -0.023578484
000210 60 3c dc b2 00 00 00 00 1a e7 a8 3b d0 e3 b7 bb
       -2.5638826e-08 0.0 0.0051545026 -0.005611874
000220 00 00 00 00 7f 53 a1 b4 81 a9 1a 3a 1c 41 8e 3b
       0.0 -3.0049338e-07 0.0005899892 0.0043412577
000230 be 73 7b bd 00 00 00 00 3d 85 a1 b4 3b 75 db ba
       -0.061389677 0.0 -3.008553e-07 -0.0016743311
000240 6d ca 7d 3d 5a ba 06 bd fb 0f 8e 3c 2c 4d a2 3d
       0.061960626 -0.032892562 0.017341604 0.079248756
000250 00 00 00 00 16 c0 91 bb c0 6c 16 bc 00 00 00 00
       0.0 -0.0044479473 -0.009181201 0.0
000260 00 00 00 00 67 6d 0c b5 ca 3b 96 bc 15 a9 b8 3b
       0.0 -5.2313266e-07 -0.018339057 0.0056353905
000270 9b 5f 8f 33 02 cb 69 3d 00 00 00 00 dc b3 bf bb
       6.676347e-08 0.05707837 0.0 -0.0058502983
000280 f3 45 78 bc 96 0b c2 3c c2 c6 f5 bb 63 d4 0a 3e
       -0.015153396 0.023687165 -0.0075005004 0.13557582
000290 24 32 1f bc 01 44 3c 3e 08 32 bd bc 76 57 01 bc
       -0.009716544 0.18385316 -0.023095146 -0.0078943875
0002a0 aa f7 86 3b 03 29 95 3d fe bd 03 3d 17 44 83 3c
       0.0041188793 0.07283213 0.032163613 0.016023679
0002b0 9e 3e a9 3b b7 a8 0d ba e4 f8 04 3f 00 00 00 00
       0.0051649353 -0.00054038636 0.51942277 0.0
0002c0 86 43 03 3c d6 8c a5 3d 6a 12 d3 3b 08 b4 2c 3d
       0.008011704 0.08083503 0.006441404 0.04216388
0002d0 ac 4e ff 3b 00 00 00 00 00 00 00 00 00 00 00 00
       0.007791361 0.0 0.0 0.0
0002e0 5f 64 3f bc 82 ff 91 bb d2 5a d5 3c 69 31 84 3c
       -0.011681645 -0.0044555077 0.026044283 0.016136842
0002f0 41 8d 66 3d ee 1c a2 3b 9b 72 52 3c fd 83 1b 3c
       0.056287054 0.0049472963 0.012844707 0.009491918
000300 27 88 36 bb 5e 75 a0 bb 47 d8 2b bc b1 4f 82 34
       -0.002785215 -0.0048968038 -0.010488576 2.427237e-07
000310 36 61 ac bd 57 38 12 3c b9 ff 51 3d 7b f1 33 bc
       -0.08416979 0.008924565 0.051269267 -0.010982866
000320 00 00 00 00 90 52 81 3b eb 04 48 3d 44 63 e9 3c
       0.0 0.00394661 0.048832815 0.028489716
000330 ad a6 d7 ba f7 3f aa 3b 00 00 00 00 a8 d3 0e bc
       -0.0016452871 0.0051956135 0.0 -0.008717455
000340 00 5b 22 3d 00 00 00 00 97 85 86 bc 45 b8 8d bb
       0.039637566 0.0 -0.016421122 -0.004324945
000350 00 00 00 00 05 d8 f5 bb 00 00 00 00 b4 cf c5 ba
       0.0 -0.007502558 0.0 -0.0015091808
000360 d0 0b 92 3b 85 be 52 bc 94 4f d5 bb 13 bf 81 3a
       0.0044569746 -0.012862806 -0.0065097306 0.0009898863
000370 68 ca e0 3d 27 e5 91 bb 5c 24 0c bc 10 fd 49 3c
       0.10976106 -0.004452366 -0.008553591 0.012328401
000380 d5 de d6 3d b4 10 ae 3b f9 e5 fa 3d 00 00 00 00
       0.104917206 0.0053120498 0.12250895 0.0
000390 51 00 bd ba 50 7a 07 3d 98 33 c4 bb 08 ea c6 bb
       -0.001441965 0.03307563 -0.0059875958 -0.006070379
0003a0 a0 ab 95 3c 33 3c 74 bc 06 c1 e5 b3 d7 c2 45 bb
       0.018270314 -0.014906931 -1.0698754e-07 -0.0030175948
0003b0 af 36 8f bc 5e fe 43 3d bd 0c 1a 3d 79 33 06 b9
       -0.01748213 0.047850005 0.037609804 -0.00012798411
0003c0 d4 50 18 3d f2 96 57 34 72 0a f4 34 11 65 ef 3c
       0.03718646 2.0078349e-07 4.5456142e-07 0.029222997
0003d0 d0 56 43 3d 00 00 00 00 05 db 03 b6 00 00 00 00
       0.047690213 0.0 -1.9648007e-06 0.0
0003e0 78 0e 62 bc 7a 9c d0 b9 4c 58 1c ba cc 7d 5a 3d
       -0.013797395 -0.00039789436 -0.0005964085 0.053342625
0003f0 46 b9 31 3c 00 00 00 00 4a 5d 3a 3c e8 c2 da 3c
       0.010847395 0.0 0.011374781 0.026704267

sequential/dense1/MatMul f4 [256, 11]
000000 71 2f 06 be 89 9f e0 b9 6a ca 7b 3d 7c f2 35 bd
       -0.13104035 -0.00042843472 0.061472334 -0.044420704
000010 5d 97 05 be de 08 bf 3c b6 7f e1 3d ac 12 95 3d
       -0.13046022 0.023319658 0.11010687 0.07278952
000020 0f f6 8e bd 3a 8e b8 3d ee ba 93 3d 4c d9 73 bc
       -0.06980526 0.090115026 0.072133884 -0.014883351
000030 98 3e 2b c0 02 ba c7 bc f2 c7 f3 bc a2 14 2c be
       -2.6756954 -0.024380688 -0.029758427 -0.16804746
000040 b5 f0 8d 3d 0d 37 c5 bc ed da e0 bf d6 01 4f 3e
       0.06930677 -0.024074102 -1.7566811 0.20215544
000050 93 ab b2 bb c3 c6 ef 3e d0 28 1a bc 4a c0 0b be
       -0.005452582 0.4683133 -0.0094091445 -0.13647571
000060 f3 60 d4 bd 86 7c d8 bd 72 c6 8e bd de 6e 10 3e
       -0.10370054 -0.10570626 -0.06971444 0.14104792
000070 84 ca d8 3d a8 b6 4b bd 8e c6 06 be 00 0f 04 ba
       0.10585502 -0.04973474 -0.1316168 -0.00050376356
000080 e8 9f fd 3d 8d 1a 31 bc ba 92 21 40 42 36 87 ba
       0.12384015 -0.010809553 2.5245805 -0.0010315853
000090 fd df 0e bd 53 28 3f 3e 55 6e c7 3d c2 22 a2 be
       -0.03488158 0.18667726 0.09737841 -0.31667143
0000a0 5f 19 a2 3f 4e 75 d8 bd fc 3b 1a 3e 79 b5 e0 be
       1.2663993 -0.10569249 0.15061945 -0.43888453
0000b0 39 fc 00 3e 97 36 38 3a e5 08 ca bd 96 02 e4 bd
       0.12596215 0.00070271775 -0.09864978 -0.11133306
0000c0 b3 a2 01 3e 29 54 8b bd 40 c2 42 3d a1 be a9 bd
       0.12659721 -0.06803162 0.047548532 -0.08288313
0000d0 19 bb 69 3d 3b 39 bf 3c ff 39 13 be 81 06 c1 bc
       0.057063196 0.02334272 -0.14377593 -0.023562672
0000e0 94 e1 3f c0 d1 af 52 bb d6 e4 03 bd e0 ac 43 bd
       -2.9981432 -0.0032148252 -0.032200657 -0.04777229
0000f0 7d 59 3f bd b8 64 d8 3d 3f 1a c6 bf 7b 07 48 3e
       -0.046716202 0.105660856 -1.547676 0.19534104
000100 a7 8e 56 be fc a1 e4 3e ed 4f 00 be 90 91 c1 bc
       -0.20952855 0.44654834 -0.1253049 -0.02362898
000110 5c 18 05 3d 79 d7 aa bd 9c c7 e7 3d b8 e5 8c 3c
       0.032493934 -0.083418794 0.11317369 0.017199382
000120 66 de 81 3d 2c ff 2f 3d f9 f3 fa bd 10 a5 3f 3c
       0.06341247 0.04296796 -0.12253565 0.011697069
000130 cc ac e1 bd ca 17 18 be 2e 9d 89 bf c7 c2 bd 3c
       -0.110192865 -0.14852825 -1.0751092 0.023164166
000140 0a 0a ac 3d c4 d8 fb bc ea 29 b4 bd c3 48 59 3e
       0.08400352 -0.03074301 -0.08797057 0.21219163
000150 e0 40 ca be ae d3 90 bd f0 12 eb bd 14 c4 2b 3e
       -0.3950262 -0.07071625 -0.114782214 0.16774017
000160 0f 97 f5 3d 83 cf f8 3f fe df 0e 3d 89 c4 f7 3d
       0.11991703 1.9438328 0.034881584 0.12098033
000170 f0 48 c5 bc b7 25 22 be d9 ca 87 3d f9 81 aa 3e
       -0.02408263 -0.158347 0.06630487 0.33302286
000180 0a 1d ae bd 31 c9 29 3e 1e 08 c0 bd 03 d7 ba 3c
       -0.085016325 0.16580655 -0.09376548 0.022807604
000190 8e 24 ef 3d 5c 91 ca 3c cc c5 00 be 83 9a 26 be
       0.11676894 0.024727516 -0.12575454 -0.16269879
0001a0 65 95 7f 3b e7 d0 93 3d 0e 48 a0 3d fe 94 97 3c
       0.0038998958 0.07217579 0.07826243 0.018503662
0001b0 a6 80 f5 3c 62 35 46 bd 42 7e 89 3c ec b9 90 3d
       0.02996857 -0.048390754 0.016783837 0.07066712
0001c0 9d eb 41 3d a2 19 31 be a9 10 a2 3d 16 8b 4d 3d
       0.04734384 -0.17294934 0.07913334 0.05018147
0001d0 9f 98 8f bd 88 5b 89 bd be 3d d1 bd 57 8e c5 bd
       -0.07011532 -0.06706911 -0.102168545 -0.0964629
0001e0 a8 92 b1 bc 84 6f 86 bd a1 2e 96 bd c0 da 79 3b
       -0.021676376 -0.06564239 -0.073331125 0.003812477
0001f0 c3 0f 14 be 00 dc 77 3a a8 b3 22 3d 2f 83 a8 bd
       -0.14459138 0.0009455085 0.039722115 -0.08228146
000200 86 80 e4 bd f2 f8 e7 bd 46 38 e4 bd 0a 7a af 3d
       -0.111573264 -0.113267794 -0.11143546 0.08568199
000210 92 4f 82 bc 16 c4 5a c0 27 aa a3 bc e5 21 1d bd
       -0.015907083 -3.4182181 -0.019978596 -0.038362402
000220 1d ab a4 bd 82 10 27 3d 3d e8 99 3d 6c 33 fd bf
       -0.0804045 0.040787227 0.07514999 -1.9781318
000230 71 13 af 3e 2d 42 0c be 1a 87 14 3f f4 e9 e5 bc
       0.3419452 -0.13697119 0.5801865 -0.02806566
000240 2a d2 8b 3d 9a 45 fd bd 51 d1 88 bd 9a 12 0a 3e
       0.06827195 -0.12366791 -0.06680549 0.13483658
000250 13 07 88 bd 47 6c c2 bd 88 cf 65 bd 50 ba be bd
       -0.06641974 -0.094933085 -0.05610612 -0.0931288
000260 e0 19 4d 3c c8 8d 9d 3d 75 53 0f 3e c2 39 f2 3f
       0.012518376 0.07693058 0.1399668 1.8923876
000270 fd 9b d2 bd be fb 0b 3d dd 36 26 3b 62 d3 d5 bd
       -0.10283659 0.034175627 0.002536229 -0.10440709
000280 f7 61 2b be f5 e6 8a 3e fc 40 a9 3d 0f bc b5 bd
       -0.1673659 0.2712933 0.08264348 -0.0887376
000290 59 35 29 be a5 90 7b 3d 72 7a b8 3b b7 c8 ba 3d
       -0.16524257 0.06141724 0.005629831 0.091203146
0002a0 95 9e 29 be a1 e8 0d 3b 8f 35 eb 3d 56 cb c6 bd
       -0.165644 0.002165355 0.11484825 -0.09706752
0002b0 28 c9 37 3c af d4 9f 3d 88 af cb bd 26 13 66 3d
       0.011217393 0.07804238 -0.09945589 0.056170605
0002c0 d7 c4 ec bd c0 ca f6 3f d7 d7 98 3d bc 9d 6f 3d
       -0.11560982 1.9280624 0.07463043 0.058500037
0002d0 24 10 37 3d c2 31 7d 3d 79 5a 2b 3d 10 17 86 3e
       0.044693127 0.06181503 0.04183433 0.2618947
0002e0 de 88 b9 3d 3d ee 02 bc ac 03 20 3b 86 df 86 bd
       0.090593085 -0.007991371 0.002441625 -0.065856025
0002f0 3e 0f 27 c0 ed 42 7f bd 4d 89 9b 3c 96 e7 70 bc
       -2.6103053 -0.062319685 0.018986369 -0.014703652
000300 1c 65 d8 3d e5 7a c6 3e af 88 02 bf 29 55 2e 3e
       0.1056616 0.38765636 -0.5098981 0.17024674
000310 c5 a5 17 be 74 96 db 3e 66 61 a2 bb 29 96 10 40
       -0.1480933 0.42888224 -0.0049554585 2.259165
000320 32 60 52 3c 03 fa f9 bc 81 a1 24 3c 8f 38 17 3d
       0.012840318 -0.030514723 0.010048271 0.036919173
000330 a0 ca 2a 3c 9e 11 8d 3f 8f 0a 05 bd a7 22 ed bc
       0.010424286 1.1021001 -0.032480773 -0.028947188
000340 d2 bf 8b be 0d b7 87 3b 9b 62 15 c0 9c 42 1f bd
       -0.27294785 0.0041416944 -2.3341434 -0.038881883
000350 26 b7 38 bd 1a 0d b9 3c f1 df 92 3d 05 e1 54 3d
       -0.04509654 0.022589255 0.0717162 0.051972408
000360 cf 26 ab bf ac dc 5c 3e 9b 11 31 bc 5f 3d ea 3e
       -1.3371218 0.21568555 -0.01080742 0.45749947
000370 a6 cf c3 3d 6e 3c f9 bd 39 81 b2 bc 3e 4f 20 3e
       0.0956109 -0.12169729 -0.021790134 0.15655228
000380 fe 06 2a 3e 8d 95 34 bc eb 66 2b be b5 d7 aa be
       0.1660423 -0.011021984 -0.16738479 -0.33367696
000390 1f 60 9b bd 27 6d 8c bc de 85 ab be dc 66 d7 bd
       -0.07586693 -0.017141892 -0.3350057 -0.10517666
0003a0 b4 75 0e 3d 60 f2 a1 3b a8 10 9a bc 88 ce da bc
       0.03478022 0.0049422234 -0.01880677 -0.02670981
0003b0 7d bc a2 bd 80 0e 04 bd f0 9f 55 3c 04 3f df 3d
       -0.079461075 -0.03224039 0.01303862 0.10900691
0003c0 34 96 b7 3d 34 69 e7 3d fb 5e f9 bd 26 72 02 3f
       0.08964196 0.11299363 -0.12176319 0.50955427
0003d0 bd 29 16 3e 04 68 0a 3e cf 8b 19 3c bc c1 2f 3e
       0.1466436 0.13516241 0.009371712 0.17163748
0003e0 df 78 07 bc 3c 85 27 3e 3f 59 cf bd f3 ae eb bd
       -0.008268564 0.16359419 -0.10124444 -0.11507978
0003f0 39 f6 ec bd bf f9 11 be e0 2d 4e bd 20 50 b6 3b
       -0.11570401 -0.14255427 -0.05033672 0.005563751

sequential/output/MatMul f4 [1, 64]
000000 77 0d d9 3b cc 4e ee 3b d7 e1 e6 3b 15 fb 4f 3c
       0.0066239196 0.007272577 0.007045965 0.01269414
000010 be 1d f6 bb 49 af ac bb b1 46 7e bb e5 36 bf 3d
       -0.0075108698 -0.005269919 -0.003879946 0.09336642
000020 b1 83 df 3b 38 ec 19 bc e1 f6 17 3c fb e2 ff 3b
       0.0068211188 -0.009394698 0.009275169 0.0078090406
000030 3a 3b ac bc 16 95 7a bd 40 86 08 3c 50 52 ba bb
       -0.021024335 -0.061177336 0.008332789 -0.005686082
000040 13 f1 07 3c f0 3f d4 bb ed af fb 3b a0 cb 8a bd
       0.008297223 -0.0064773485 0.007680884 -0.0677712
000050 d7 c8 9b bb 43 95 5b 3c ab d4 b0 3c 26 b5 ed 3b
       -0.0047541666 0.013402286 0.021585783 0.0072542606
000060 45 0a e2 3b 8b ac f1 bb bb 4e 11 3c cb 6a 15 3c
       0.006898197 -0.007375305 0.008868868 0.0091197
000070 41 11 04 3c b1 30 4c 3d 42 15 ef 3b ea 3d fe bb
       0.008060754 0.049851123 0.0072962353 -0.0077588456
000080 b4 ce d8 3b a9 3b dd bd 3d 35 c9 3b 0e 28 0e 3c
       0.006616438 -0.10802395 0.0061403797 0.008676542
000090 28 76 0a 3c cc f4 9f 3a 36 b3 8f 3b 2d c8 1f 3c
       0.008451022 0.0012203692 0.0043853773 0.0097523155
0000a0 63 00 dd 3b 67 7b bc bb 50 77 a0 bc ad 25 c1 bb
       0.006744431 -0.0057520154 -0.019588143 -0.005894384
0000b0 74 2a 0b 3c 5d 5c 87 bb 24 90 da 3b cf fc b1 bc
       0.008494008 -0.0041308836 0.006670015 -0.021726994
0000c0 dd a2 22 3c e9 82 05 3c 04 b8 39 3c 30 08 80 bb
       0.009926525 0.008148887 0.011335377 -0.003907226
0000d0 c0 8d 93 bb b3 f9 be 3b 86 18 19 3c 97 f4 f7 3b
       -0.004502982 0.0058281063 0.009344226 0.007566999
0000e0 ae 96 b6 3b bf 41 9a bb 62 eb b7 3b c5 9a 91 3d
       0.0055721616 -0.0047075446 0.0056127766 0.07109598
0000f0 b6 80 e5 3b 89 ca 4c 3c bb f9 ca 3b 13 91 dd 3b
       0.007003869 0.01249946 0.006194321 0.006761679
